s1_development_environment/exercise_files/final_exercise/model.pth (torch, 378536 bytes, 8 tensors)

conv1.weight f4 [32, 1, 3, 3]
0	0xbe249c81	-0.16075327
1	0x3d8bdfe2	0.06829812
2	0xbbce5b07	-0.0062974724
3	0xbec28652	-0.37993103
4	0xbdceb0ac	-0.10092291
5	0x3e353f0a	0.17699829
6	0x3d9d2e4c	0.07674846
7	0x3f000050	0.50000477
8	0xbdf91cdb	-0.12163707
9	0x3e054d03	0.13017659
10	0x3e49349b	0.19648974
11	0xbe427ad1	-0.18992163
12	0xbe310400	-0.17286682
13	0x3d023717	0.03179082
14	0x3ecfa411	0.4055486
15	0xbedace31	-0.42735437
16	0x3dfcaf1e	0.123380885
17	0x3bd54032	0.006507897
18	0x3de08d54	0.10964456
19	0xbe57723c	-0.2103967
20	0xbf3e90d8	-0.74439764
21	0x3e8987a5	0.268613
22	0x3d405736	0.04695817
23	0xbee13d0b	-0.43991885
24	0x3e876b43	0.26449022
25	0x3f1501cc	0.58205867
26	0x3de3fa6d	0.11131749
27	0x3e8aceee	0.27111
28	0x3e0643b2	0.13111761
29	0x3e596ebe	0.21233651
30	0xbd17ac87	-0.03702977
31	0xbe6dcbda	-0.23222294
32	0x3e0935ec	0.13399476
33	0xbc4be8b0	-0.012445614
34	0x3ea211df	0.3165426
35	0x3d6a2dd2	0.057172604
36	0xbdd7334d	-0.10507832
37	0x3f043fea	0.51660025
38	0xbec400d9	-0.38281897
39	0x3dddc3fd	0.108283974
40	0x3e832843	0.25616655
41	0xbef6f31b	-0.4823235
42	0xbe749218	-0.23883855
43	0x3edb54e1	0.42838195
44	0xbe119f82	-0.14221004
45	0x3e72662c	0.23671788
46	0xbe9a5b4b	-0.30147776
47	0x3d14506b	0.036209505
48	0x3e474b01	0.19462205
49	0x3dce718c	0.10080251
50	0x3dbf1b88	0.09331423
51	0xbdbc182a	-0.091842964
52	0x3da5fd63	0.0810497
53	0x3ceabe5c	0.028655224
54	0x3f05a39d	0.5220278
55	0x3e01193f	0.12607287
56	0xbf809521	-1.004551
57	0x3e03360d	0.12813587
58	0xbdbedaa0	-0.09319043
59	0xbf55d813	-0.8353283
60	0x3ec91bd9	0.3927906
61	0xbe9da13e	-0.3078708
62	0xbf45dc65	-0.7728942
63	0xbeee3f27	-0.46532556
64	0x3edd6476	0.43240708
65	0x3f28a796	0.65880716
66	0xbf144ded	-0.57931405
67	0xbef8dcb9	-0.48605898
68	0x3eb2f5a2	0.34953028
69	0xbe42fa70	-0.19040847
70	0xbf07bec1	-0.5302544
71	0x3eac6631	0.33671716
72	0xbdbde957	-0.09273022
73	0xbd9ef6f3	-0.077619456
74	0xbe7ba28f	-0.2457373
75	0xbd812964	-0.06306723
76	0x3e56a253	0.2096036
77	0xbe0f515e	-0.13995883
78	0x3e13361c	0.1437611
79	0x3ea6a16d	0.32545033
80	0xbe8eff23	-0.2792903
81	0xbf1d4adc	-0.6144235
82	0xbeb388b2	-0.35065228
83	0xbefedd71	-0.4977832
84	0x3e0e2930	0.138829
85	0x3e480b05	0.19535454
86	0x3c455ba9	0.012045779
87	0x3ebb1f97	0.3654754
88	0x3e2a7f52	0.16650131
89	0x3e467159	0.19379176
90	0x3f37dcf2	0.7182151
91	0xbd111dbf	-0.03542876
92	0xbe878801	-0.2647095
93	0x3e88294f	0.26594016
94	0xbf862533	-1.0480102
95	0xbeb91746	-0.3615057
96	0xbf1bb53c	-0.60823417
97	0xbf2194a5	-0.6311744
98	0x3f1276ab	0.5721232
99	0x3e201fdf	0.15637158
100	0x3afeb654	0.0019433
101	0x3ee450c8	0.4459288
102	0xbd0efb9c	-0.034907922
103	0x3d35e246	0.044405244
104	0x3eb6a99e	0.35676283
105	0xbec7fb8b	-0.390591
106	0xbf1d66e6	-0.61485136
107	0xbd2f2139	-0.042756293
108	0xbe10c174	-0.14136297
109	0xbe4cd8dd	-0.20004602
110	0x3da03c35	0.078239836
111	0xbe3fe767	-0.18740617
112	0xbdda11ba	-0.10647912
113	0x3e35a099	0.17737044
114	0xbe090da7	-0.13384114
115	0x3e195583	0.14974026
116	0x3ecba75f	0.39776132
117	0xbeb247b1	-0.3482032
118	0xbda11811	-0.078659184
119	0x3ed62be9	0.41830376
120	0x3e159390	0.14607072
121	0x3e2c81c9	0.16846384
122	0xbc88318d	-0.01662519
123	0x3e41681e	0.18887374
124	0xbddec553	-0.1087748
125	0x3eb21cd7	0.34787628
126	0xbd81e45d	-0.06342385
127	0xbe5eaabd	-0.21744819
128	0xbe5b611c	-0.21423763
129	0xbe60482c	-0.21902531
130	0x3da8f480	0.0824976
131	0x3e9a07cc	0.30084074
132	0xbe545225	-0.2073446
133	0x3e88601b	0.26635823
134	0x3eaa3c82	0.3324929
135	0xbee6b637	-0.45060894
136	0xbd90c4e6	-0.070688054
137	0x3ea835a1	0.32853416
138	0xbf1b3784	-0.60631585
139	0xbf0e7944	-0.55653787
140	0xbf32247e	-0.6958693
141	0xbea49dca	-0.32151634
142	0xbea9b533	-0.33146057
143	0xbeeba9c4	-0.46027958
144	0xbe2ec893	-0.170687
145	0x3d264b55	0.040599186
146	0xbf2d5086	-0.67700994
147	0x3d9540ef	0.07287776
148	0x3eb9ee5e	0.36314672
149	0x3eb9b6bb	0.36272225
150	0xbeddaed8	-0.43297458
151	0x3d843bc9	0.064567156
152	0x3e565d0d	0.20933934
153	0xbc5a8d15	-0.013339301
154	0x3ed11fc7	0.40844557
155	0x3e651edb	0.22375052
156	0x3e78e93b	0.2430772
157	0x3d288ac9	0.04114798
158	0xbdf8561e	-0.121258005
159	0xbf2ac052	-0.6669971
160	0xbea38eb3	-0.31944808
161	0xbf1135d8	-0.56722784
162	0xbeb0ab90	-0.34505892
163	0xbf2e4e3e	-0.6808814
164	0xbf14c9b9	-0.58120304
165	0xbda879d3	-0.08226361
166	0xbe307783	-0.1723309
167	0x3d8a6fca	0.06759603
168	0x3e0b4e81	0.13604166
169	0x3ee1fcad	0.4413809
170	0x3f2f49be	0.68471897
171	0xbf28fc20	-0.6600971
172	0xbefbfb75	-0.49215284
173	0x3ea1b57e	0.3158378
174	0xbe3316de	-0.17489192
175	0xbf54a880	-0.8306961
176	0xbe2a1399	-0.16609038
177	0x3f091bea	0.5355822
178	0xbf377cb1	-0.7167464
179	0xbdc6b862	-0.09703137
180	0xbea03b1f	-0.31295106
181	0x3db3f194	0.08786312
182	0xbddf8157	-0.109133415
183	0x3e5299a6	0.20566425
184	0xbe27a4bd	-0.16371436
185	0xbd231f4d	-0.039824773
186	0x3eb5c256	0.3549983
187	0x3e621761	0.22079231
188	0xbf2f55f3	-0.68490523
189	0x3e772ba1	0.24137737
190	0x3f18f8ea	0.5975481
191	0x3ea73b18	0.32662272
192	0xbdb275fb	-0.08713909
193	0xbe255e60	-0.16149282
194	0xbdbb1e5d	-0.09136651
195	0xbecfab91	-0.40560582
196	0xbec02daf	-0.37534854
197	0xbe38150d	-0.1797678
198	0xbd876882	-0.0661173
199	0xbf0dc629	-0.55380493
200	0xbf22a0d1	-0.63526636
201	0x3e979b6f	0.29610774
202	0x3b2ebf2a	0.0026664236
203	0xbdddf999	-0.108386226
204	0x3ea5be42	0.32371718
205	0x3f29e6af	0.6636762
206	0x3c2ba1d2	0.010475593
207	0x3df4e650	0.11957991
208	0xbe324a5a	-0.17411175
209	0x3dc81817	0.0977022
210	0xbd093845	-0.03350093
211	0x39dd87be	0.0004225354
212	0x3e5b994d	0.21445198
213	0xbdf45ee7	-0.11932164
214	0x3e9020d9	0.2815006
215	0xbe61e72b	-0.2206084
216	0xbd984ab7	-0.07436126
217	0x3ddedcf5	0.10881988
218	0x3dd6ffa7	0.104979806
219	0x3e063350	0.13105512
220	0xbd990f92	-0.07473673
221	0x3c0fa064	0.008766267
222	0x3dd4a0d6	0.103822395
223	0x3d52e46d	0.051487375
224	0xbde95aba	-0.11394258
225	0xbe1011ac	-0.14069241
226	0x3e42d1b3	0.19025306
227	0xbe92d7de	-0.2868032
228	0xbdc98001	-0.09838868
229	0x3ed38a25	0.41316333
230	0xbed5abba	-0.4173258
231	0xbc76c2db	-0.015061106
232	0xbda66f5c	-0.08126709
233	0x3eafb3f4	0.3431698
234	0x3e871f11	0.2639089
235	0xbe719bab	-0.23594539
236	0x3e0781ce	0.1323311
237	0xbda14517	-0.07874506
238	0x3e78201f	0.24231003
239	0xbd819c6f	-0.063286655
240	0xbe8fb25b	-0.28065762
241	0xbed70496	-0.41995686
242	0x3ec3ecaf	0.38266513
243	0xbf0ace2c	-0.54220843
244	0xbe829795	-0.25506273
245	0x3dc37e90	0.09545624
246	0xbebcc301	-0.36867526
247	0x3e2b9a29	0.16758026
248	0xbc06e22a	-0.008232633
249	0x3e0f233d	0.13978286
250	0x3f129489	0.57257897
251	0x3eea1720	0.45720768
252	0x3e0a973c	0.13534254
253	0x3e5fc96f	0.21854185
254	0xbec021a3	-0.37525663
255	0xbe410fe3	-0.18853717

conv1.bias f4 [32]
0	0xbcc70e7f	-0.024298904
1	0xbc8d941f	-0.017282544
2	0xbbea2ec8	-0.00714669
3	0xbe91c8c5	-0.28473487
4	0xbdbd81ce	-0.09253274
5	0xbd43d061	-0.047806147
6	0x3ed7c7ac	0.42144525
7	0xbbe21c1e	-0.0069003245
8	0xbca2534a	-0.019815106
9	0x3c38f566	0.011288976
10	0x3db0668d	0.0861331
11	0xbc4eeeb5	-0.012630154
12	0xbbc0ad56	-0.0058800383
13	0xbea6f310	-0.32607317
14	0xbb30e868	-0.0026993994
15	0x3f151c8d	0.5824669
16	0xbb929c77	-0.0044742185
17	0x3d20971a	0.0392066
18	0x3d93d888	0.072190344
19	0x3ec45578	0.38346457
20	0xbca02168	-0.01954718
21	0xbca291b4	-0.019844867
22	0xbb2a1e38	-0.0025957953
23	0xbdb3d509	-0.087808676
24	0xbe04001c	-0.12890667
25	0xbd873631	-0.06602133
26	0xbceff9ab	-0.029293856
27	0xbd9594b2	-0.07303752
28	0xbe4685d8	-0.19386995
29	0x3e215549	0.1575519
30	0x3e3519ef	0.17685674
31	0xbc78630c	-0.015160333

conv2.weight f4 [64, 32, 3, 3]
0	0x3b9683f2	0.004593366
1	0xbc5659b4	-0.01308291
2	0xbc3fa523	-0.0116970865
3	0xbdd6c285	-0.104863204
4	0x3c64b09e	0.013958124
5	0x3d29c35c	0.041446075
6	0xbe200a03	-0.15628819
7	0xbdf9ea82	-0.12202932
8	0x3d88b7be	0.06675671
9	0x3daa83e3	0.08325937
10	0x3de2bc8e	0.1107112
11	0x3daa52f3	0.083166026
12	0xbce46d20	-0.027884066
13	0x3dafd089	0.08584697
14	0x3d1052ff	0.0352354
15	0xbd56c721	-0.052435998
16	0xbdd4f45a	-0.10398169
17	0xbdf422f3	-0.119207285
18	0x3d2018bd	0.039086092
19	0xbc5b2962	-0.013376566
20	0x3db60fdd	0.088897444
21	0x3d875939	0.06608815
22	0xbd8b68c2	-0.0680709
23	0xbd67a087	-0.056549575
24	0xbe97949a	-0.29605561
25	0xbeb306d7	-0.34966156
26	0xbde41c92	-0.11138262
27	0x3ce28b23	0.027654236
28	0x3d8e8c70	0.0696038
29	0x3ccd254c	0.025042199
30	0x3d926a6e	0.07149206
31	0xbd9b806d	-0.07592855
32	0xbd677c02	-0.056514747
33	0xbe255dd5	-0.16149075
34	0xbe864a31	-0.2622848
35	0xbd9d47b4	-0.07679692
36	0x3e24ad18	0.16081655
37	0x3d162f9a	0.03666649
38	0xbcdc042c	-0.026857458
39	0x3e46a917	0.1940044
40	0x3db4415f	0.08801531
41	0x3dce6d41	0.10079432
42	0xbdc92e01	-0.09823228
43	0x3cfac032	0.030609224
44	0x3c975d9e	0.018477257
45	0x3d8424e7	0.06452351
46	0x3de4e65e	0.111767516
47	0x3db4cacb	0.08827742
48	0x3be66afe	0.0070317974
49	0x398b3d2a	0.00026557717
50	0xbd3cc5a4	-0.046086922
51	0xbe0e9ad1	-0.13926245
52	0xbe677225	-0.22602136
53	0xbe16fc2a	-0.1474463
54	0xbe181519	-0.14851798
55	0xbdaa47ab	-0.08314451
56	0x3db31b0b	0.087453924
57	0x3cd9f013	0.026603734
58	0xbda7028f	-0.08154785
59	0x3cf58f8d	0.029975677
60	0x3d0ecb51	0.034861866
61	0x3d19192e	0.03737753
62	0x3c136a59	0.008997523
63	0x3e31e1ed	0.1737134
64	0x3da28df4	0.07937232
65	0x3d0db339	0.03459475
66	0x3cc10dac	0.02356609
67	0x3d3db99f	0.0463196
68	0xbc226332	-0.009911345
69	0x3d3cb742	0.046073206
70	0xbd44d250	-0.048052132
71	0xbd1a9658	-0.037741035
72	0x3d08772f	0.033316787
73	0x3d245936	0.04012414
74	0x3d023e7f	0.031797882
75	0x3d6927d2	0.05692274
76	0xbd2690d7	-0.040665474
77	0xbd2dcde3	-0.042432677
78	0xbe21a554	-0.15785724
79	0xbe93855b	-0.2881268
80	0xbd547f34	-0.051879123
81	0xbdb21ae1	-0.08696533
82	0xbe04cdd7	-0.12969147
83	0xbba30706	-0.0049752025
84	0xbd17f2a5	-0.03709664
85	0xbe3ffa33	-0.18747787
86	0xbe49adab	-0.19695155
87	0xbe5afec3	-0.21386246
88	0xbe5b6bf4	-0.214279
89	0x3d26c34a	0.040713586
90	0xbd7dee7e	-0.061995022
91	0x3e9f1ea6	0.3107807
92	0x3e3c4169	0.18384327
93	0x3c7a43b7	0.015274934
94	0x3d2ca00a	0.042144813
95	0x3e6e4746	0.23269376
96	0x3e9711eb	0.29505858
97	0x3ebef13e	0.37293428
98	0x3ea881f6	0.32911652
99	0x3cebd3c5	0.028787503
100	0x3dd1a79f	0.10237049
101	0x3e107c47	0.14109908
102	0xbd061273	-0.03273244
103	0x3d400804	0.046882644
104	0xbc5e0924	-0.013551984
105	0x3e31b6cd	0.17354889
106	0xbda569ce	-0.08076821
107	0xbe201b09	-0.15635313
108	0x3d117f2b	0.035521667
109	0x3d855ac8	0.06511456
110	0xbc93e571	-0.018053742
111	0xbd8faf9d	-0.070159175
112	0xbc87a171	-0.016556473
113	0xbd80a594	-0.062815815
114	0xbe4d804e	-0.20068476
115	0xbde32a2f	-0.1109203
116	0x3de61e19	0.112362094
117	0x3d2e5e8f	0.042570647
118	0x3d918d5b	0.071070395
119	0xbcb8c931	-0.022556873
120	0xbdbf8131	-0.09350813
121	0xbdfb6d80	-0.12276745
122	0xbdfbc5c7	-0.122935824
123	0xbe998275	-0.29982343
124	0xbe6a4891	-0.22879244
125	0x3da50841	0.08058215
126	0x3d40da84	0.047083393
127	0x3d146f5c	0.036239013
128	0x3cc3be03	0.023894316
129	0xbda19f02	-0.078916565
130	0xbd1285a9	-0.035772
131	0x3c5035b5	0.012708117
132	0xbe7a6167	-0.24451219
133	0xbde96321	-0.113958605
134	0x3dadc523	0.084848665
135	0xbdd27221	-0.102756746
136	0xbe7bc514	-0.24586898
137	0xbdd773df	-0.105201475
138	0xbe090102	-0.1337929
139	0x3cdf7ec8	0.027282134
140	0xbe047fc0	-0.12939358
141	0x3dfee100	0.12445259
142	0x3d9d9aec	0.07695565
143	0xbd500ed0	-0.050795376
144	0xbe38f52d	-0.18062277
145	0xbe1615d7	-0.14656769
146	0xbd312524	-0.04324831
147	0xbe29080e	-0.16506979
148	0xbde31121	-0.110872515
149	0x3c2379ee	0.009977801
150	0xbe4788b5	-0.19485743
151	0xbdd36620	-0.10322213
152	0x3cd8855a	0.026430774
153	0x3d64dd83	0.055875313
154	0x3dbd917a	0.09256263
155	0xbd06f4da	-0.032948352
156	0xba485973	-0.00076427235
157	0xbcd6502e	-0.02616128
158	0xbabbbdf2	-0.0014323576
159	0x3e35e970	0.1776483
160	0x3d5a75f2	0.053335138
161	0xbe58b9bf	-0.21164607
162	0xbdeea270	-0.11652076
163	0xbe04c9ab	-0.12967555
164	0xbdba7f45	-0.09106306
165	0xbe6a99a4	-0.22910172
166	0xbe8e9433	-0.27847442
167	0xbdf7bc86	-0.12096505
168	0xbdd939f5	-0.106067576
169	0x3d43de73	0.047819566
170	0x3d63c134	0.055604175
171	0xbd8f1559	-0.069864936
172	0xbe9e814c	-0.3095802
173	0xbdfce87e	-0.12349032
174	0xbd8d0256	-0.06885211
175	0xbdcfe844	-0.10151723
176	0xbe3670d1	-0.17816474
177	0x3b80ac1d	0.0039267675
178	0xbd354959	-0.044259403
179	0xbda9ce41	-0.08291293
180	0x3cd93e80	0.02651906
181	0x3d84e66e	0.064892635
182	0x3db58fe0	0.088653326
183	0x3ceafede	0.028685983
184	0x3de125a4	0.109935075
185	0x3da5440f	0.08069622
186	0xbd8f7203	-0.07004168
187	0xbe92126f	-0.2852969
188	0xbc7f662d	-0.015588325
189	0xbdb30f9f	-0.08743214
190	0x3dd1d50e	0.10245715
191	0x3e1da8f7	0.15396486
192	0xba2ac834	-0.0006514818
193	0x3dae9d3f	0.08526086
194	0xbcd76c70	-0.026296824
195	0x3eb3ac33	0.35092315
196	0x3e5b5b21	0.21421482
197	0xbe2020ee	-0.15637562
198	0xbe168143	-0.14697747
199	0xbd64c75d	-0.05585419
200	0xbbdf5b20	-0.006816283
201	0xbbe3e36a	-0.0069546
202	0xbe0867d2	-0.13320854
203	0xbd44b792	-0.04802663
204	0xbe85dd7d	-0.26145545
205	0xbea86ae2	-0.32894045
206	0xbc72cf1f	-0.014819889
207	0x3b9e1dc2	0.0048253248
208	0x3d09855c	0.033574447
209	0x3d30ee3a	0.04319594
210	0x3c98d7d9	0.018657612
211	0x3d227365	0.03966083
212	0xbd82d86a	-0.06388934
213	0xbda9a9fd	-0.08284376
214	0xbe72cf0a	-0.23711792
215	0xbd44b7bc	-0.048026785
216	0xbc011f07	-0.007880933
217	0x3db9b66b	0.090679966
218	0x3db8b6f5	0.09019271
219	0xbab2fbb7	-0.0013655339
220	0xbd8b7dd9	-0.06811113
221	0xbdebe649	-0.11518533
222	0xbe1d25df	-0.15346478
223	0xbe4e31b8	-0.20136154
224	0xbdb0c164	-0.08630636
225	0x3d979924	0.07402256
226	0x3d2de6d4	0.042456463
227	0xbd46f042	-0.04856897
228	0xbc337c45	-0.010954921
229	0xbd405095	-0.04695185
230	0xbd10abb9	-0.035320017
231	0xbe20d7b7	-0.15707289
232	0xbe815927	-0.2526333
233	0xbe1dbd29	-0.1540419
234	0x3d1dd819	0.038536165
235	0x3d7552b9	0.059893344
236	0x3c95b37c	0.018274061
237	0x3d0ce312	0.03439624
238	0x3cf835af	0.030299036
239	0xbc32a69b	-0.01090398
240	0x3e1dd50f	0.15413307
241	0xbc7551a6	-0.01497308
242	0xbe01c6ce	-0.12673494
243	0x3dacb3a5	0.08432702
244	0x3d952f1f	0.07284378
245	0xbd944862	-0.072403684
246	0xbddbed1d	-0.10738585
247	0xbdea2168	-0.11432153
248	0xbdf311b2	-0.118686095
249	0xbe8b248c	-0.2717632
250	0xbe2a18f3	-0.1661108
251	0x3e56500f	0.20928977
252	0x3c037500	0.0080235
253	0x3d283b10	0.04107195
254	0x3c494ded	0.012286645
255	0xbe00ad7f	-0.12566184

conv2.bias f4 [64]
0	0xbd6b1ab0	-0.057398498
1	0xbd06e594	-0.032933787
2	0xbd9ddeaf	-0.07708489
3	0x3d43dce4	0.04781808
4	0x3b769741	0.0037626775
5	0xbd32a14e	-0.043610863
6	0xbd1bc0c9	-0.03802565
7	0xbdf13279	-0.11777205
8	0xbd8fa43d	-0.07013748
9	0xbd524c6f	-0.051342424
10	0xbb0e0703	-0.002167166
11	0xbdcf9309	-0.101354666
12	0xbdb87bb7	-0.09007972
13	0x3d5c8573	0.053838205
14	0xbe0eb811	-0.13937403
15	0x3d23db5b	0.040004116
16	0xbcdd126c	-0.026986323
17	0xbd9fa439	-0.07794995
18	0xbd0e5cb4	-0.034756377
19	0xbcce7968	-0.025204375
20	0xbdb7d24d	-0.089756586
21	0xbd983815	-0.07432572
22	0xbe0e0db3	-0.13872413
23	0x3ca1a442	0.019731645
24	0xbaa435cc	-0.001252824
25	0xbd8d4979	-0.068987794
26	0xbdd3f1ca	-0.10348852
27	0xbd4e73b0	-0.050403297
28	0xbc796727	-0.015222347
29	0xbe0320e4	-0.12805516
30	0xbcc1a043	-0.023635989
31	0x3e0715c3	0.13191895
32	0xbd4f21d2	-0.050569363
33	0xbd9a8154	-0.07544199
34	0xbd942d51	-0.07235206
35	0x3cb4948f	0.022043495
36	0xbd48b354	-0.048999146
37	0xbd1b7f99	-0.037963483
38	0x3c4c7a8a	0.012480387
39	0xbd99af0e	-0.07504092
40	0x3da2cbf2	0.07949056
41	0xbc94d28b	-0.018166801
42	0xbd012180	-0.03152609
43	0x3bbb5a03	0.0057175173
44	0xbd7bf690	-0.061514437
45	0xbd6aa60b	-0.057287257
46	0xbd657c00	-0.05602646
47	0xbcd3e5cd	-0.025866413
48	0xbd35fa2c	-0.044428036
49	0xbd7e078a	-0.06201891
50	0xbd3a8954	-0.045541123
51	0x3d25dcfe	0.040493958
52	0x3c95e2d2	0.018296633
53	0xbcb36db2	-0.021902893
54	0xbdbdf02c	-0.09274325
55	0xbd8e2f19	-0.06942577
56	0xbd074550	-0.033025086
57	0xbdd3383c	-0.1031346
58	0x3d722218	0.059114546
59	0xbd20edfc	-0.03928946
60	0xbd6fe8f8	-0.058571786
61	0xbc02a166	-0.007973051
62	0xbd41560d	-0.047201205
63	0xbd028123	-0.031861436

conv3.weight f4 [128, 64, 3, 3]
0	0xbe5acc7d	-0.21367069
1	0xbe3159e8	-0.17319453
2	0xbe70c0ae	-0.23511001
3	0xbe2d1943	-0.16904168
4	0xbdc91a90	-0.098195195
5	0xbdcb6682	-0.09931661
6	0xbe931c2c	-0.2873243
7	0xbe11f160	-0.14252234
8	0xbe208e1a	-0.15679207
9	0x3e4c9e53	0.19982271
10	0x3e5634e7	0.20918618
11	0x3c82dba0	0.015973866
12	0x3e3558ef	0.17709707
13	0xbcda4867	-0.026645852
14	0x3cccaa9a	0.024983693
15	0x3ea85d74	0.328838
16	0xbddfc090	-0.109254
17	0x3cc1401f	0.023590146
18	0xbe906cc3	-0.2820798
19	0xbe51e7b3	-0.20498542
20	0xbea27577	-0.31730244
21	0xbd967b17	-0.07347696
22	0xbdd89900	-0.105760574
23	0xbdf42869	-0.1192177
24	0xbe1e27ee	-0.1544492
25	0xbe2a26ef	-0.16616414
26	0xbe8cbc9d	-0.2748765
27	0x3dd22ccf	0.10262453
28	0x3dc9dfa2	0.09857108
29	0xbd0236e3	-0.031790625
30	0x3e09029d	0.13379903
31	0xbbca4352	-0.006172576
32	0x3e0e9e76	0.13927636
33	0x3e04b764	0.12960583
34	0xbe01e2d2	-0.12684181
35	0xbc345bb1	-0.011008189
36	0x3ce3733a	0.027764905
37	0x3d7d6470	0.061863363
38	0xbc68eb7b	-0.014216299
39	0x3d1347f2	0.035957284
40	0x3d7a8d54	0.061169937
41	0x3b5f0738	0.0034031402
42	0x3c997130	0.01873073
43	0x3d54db48	0.051966935
44	0x3c7c2be3	0.015391323
45	0xbd9ba551	-0.07599891
46	0xbd72dd18	-0.059292883
47	0xbdf7550c	-0.12076768
48	0xbdd32b6e	-0.10311018
49	0xbd6ee638	-0.058325022
50	0xbbf5810e	-0.007492191
51	0xbd58632b	-0.05282895
52	0xbd1cc315	-0.038271982
53	0x3da04c37	0.07827037
54	0x3c3e1b25	0.011603151
55	0xbe3dccf8	-0.1853522
56	0x3d7e6dfc	0.062116608
57	0xbe787d37	-0.24266516
58	0xbe7b1bba	-0.24522296
59	0xbdde2862	-0.10847546
60	0xbe14ca4c	-0.14530295
61	0xbe01d0fd	-0.12677379
62	0xbeac8741	-0.3369694
63	0xbded3b13	-0.11583533
64	0xbe08ef3f	-0.13372515
65	0xba8201eb	-0.0009918784
66	0xbd99ad1e	-0.075037226
67	0xbd6f09f9	-0.05835912
68	0x3d1f643d	0.038913954
69	0x3c555bc5	0.013022368
70	0xbcbf346b	-0.023340425
71	0x3dcf8714	0.10133186
72	0xbc73a394	-0.014870543
73	0x3e02b11a	0.12762871
74	0x3e6b6a0b	0.22989671
75	0xbc835958	-0.016033813
76	0x3de76749	0.11298997
77	0x3ca2aefa	0.019858826
78	0x3dc031da	0.093845084
79	0xbbb1f01c	-0.0054302346
80	0x3d76fa90	0.06029755
81	0x3dcf08ee	0.10109125
82	0x3dc6221c	0.096744746
83	0xbe9b8a8d	-0.30379143
84	0x3d32d5e6	0.04366102
85	0x3c92f4be	0.017938968
86	0xbb20d963	-0.0024543635
87	0x3d5d2fe9	0.05400077
88	0x3d06106f	0.032730516
89	0xbd9ad447	-0.0756002
90	0xbd71ee64	-0.059065238
91	0xbcdf4b19	-0.027257489
92	0xbeaa6d38	-0.33286452
93	0x3da0d97a	0.0785398
94	0x3dcb0e38	0.099148214
95	0xbdc2ab68	-0.095053494
96	0x3d103dce	0.03521519
97	0xbd0ced3d	-0.034405936
98	0xbd4afbd1	-0.049556557
99	0xbd90b2ed	-0.070653774
100	0xbd895ec9	-0.06707532
101	0xbee00172	-0.43751103
102	0xbd39b7f0	-0.045341432
103	0xbcc6c3da	-0.024263311
104	0x3da36873	0.079789065
105	0x3d810529	0.06299812
106	0xbc76273f	-0.015024005
107	0x3d4a472a	0.049384274
108	0xbe72f248	-0.23725235
109	0xbd7d6a2c	-0.06186883
110	0xbd112c09	-0.035442386
111	0xbe409223	-0.18805747
112	0xbdd797d3	-0.10527005
113	0x3e1aaefb	0.15105812
114	0xbd0cd08e	-0.03437858
115	0xbd583f06	-0.05279448
116	0x3d0dcbbc	0.034618124
117	0x3d15238a	0.036410846
118	0x3e3796a6	0.17928562
119	0x3d298f53	0.04139645
120	0xbdfe2c2e	-0.1241077
121	0x3ad1561d	0.0015971098
122	0x3d2c238b	0.042026084
123	0xbc2f06d7	-0.010682783
124	0xbdcec777	-0.10096639
125	0x3dc1f876	0.09471218
126	0xbe6d4fcf	-0.23174976
127	0xbe846bf5	-0.25863615
128	0xbe63ec66	-0.22258148
129	0xbe312ff7	-0.17303453
130	0xbe4b881c	-0.1987614
131	0xbe028ea1	-0.12749721
132	0xbe9f6969	-0.3113511
133	0xbe1b8ec7	-0.15191184
134	0xbe5ed92d	-0.21762533
135	0x3cfdf2d6	0.030999582
136	0xbcf1de61	-0.029524984
137	0xbdfc2a68	-0.12312776
138	0xbd7c74b7	-0.061634745
139	0x3c6be8df	0.0143987825
140	0xbdaa3f28	-0.08312827
141	0x3dc01c45	0.09380392
142	0x3df33a01	0.11876298
143	0x3de331d9	0.11093492
144	0xbdd3f5e0	-0.10349631
145	0xbd968464	-0.0734947
146	0x3d9269c8	0.071490824
147	0x3d41b63f	0.047292944
148	0x3c688cdb	0.014193739
149	0x3c41f847	0.011838979
150	0xbcd68afe	-0.026189324
151	0xbe431317	-0.19050251
152	0x3d8bb3a8	0.06821376
153	0x3dcdc158	0.10046643
154	0x3e70d28d	0.23517819
155	0x3c77ea99	0.015131616
156	0x3da1a81a	0.07893391
157	0x3d85ad8e	0.065272436
158	0x3d58b64b	0.052908223
159	0x3d7323ce	0.059360318
160	0xbd85bebb	-0.065305196
161	0xbd4be1ee	-0.04977601
162	0x3d0c2901	0.034218792
163	0xbcbb293b	-0.022846809
164	0x3d04dc57	0.032436695
165	0x38cd2800	9.782612e-05
166	0xbafef7e0	-0.0019452535
167	0x3cac056a	0.020998675
168	0xbc12a39c	-0.00895014
169	0xbc500a00	-0.012697697
170	0x3cb60232	0.022217844
171	0x3d05cddf	0.032667037
172	0x3cf45041	0.029823424
173	0xbe11abc0	-0.14225674
174	0x3cfa6aaf	0.030568449
175	0x3db7faaf	0.08983361
176	0xbd7452f6	-0.05964943
177	0x3dbba50c	0.091623396
178	0x3b49277d	0.0030693703
179	0xbd86f3b9	-0.06589455
180	0xbde967f4	-0.113967806
181	0xbede8e61	-0.43468
182	0xbe223ee0	-0.15844297
183	0xbe80964b	-0.25114664
184	0xbe0140f8	-0.1262244
185	0xbddeaf9b	-0.10873338
186	0x3cea76b7	0.02862106
187	0xbd9cf3ae	-0.07663666
188	0xbe239b2a	-0.15977159
189	0xbe165c6d	-0.14683695
190	0xbe6c3532	-0.23067167
191	0xbe5cd046	-0.21563825
192	0xbe890845	-0.26764122
193	0xbe2dff14	-0.16991836
194	0xbd47b7be	-0.048759215
195	0xbdbc9b18	-0.09209269
196	0x3d4cf7ae	0.050040893
197	0x3d3198a6	0.043358468
198	0xbe8d5ad8	-0.2760837
199	0xbe3d7dc0	-0.18505001
200	0xbe925c89	-0.28586224
201	0xbe1cf97c	-0.15329546
202	0x3d1815e8	0.037130266
203	0xbdd8184e	-0.10551511
204	0xbea8a848	-0.32940888
205	0xbe725aef	-0.23667501
206	0xbe1d0968	-0.1533562
207	0x3cad4c76	0.021154623
208	0xbc4b4dbc	-0.01240867
209	0xbd254831	-0.04035205
210	0x3d166d97	0.036725607
211	0x3d36efe3	0.044662368
212	0x3dd4c1bd	0.10388515
213	0xbb85b55a	-0.0040804567
214	0x3dae1e6c	0.08501896
215	0xbd2ae537	-0.041722503
216	0xbcad0540	-0.021120667
217	0xbd2e57a7	-0.04256406
218	0xbdb12a40	-0.08650637
219	0x3d8d561b	0.06901189
220	0x3c8bef6f	0.017081944
221	0x3d1f5a2d	0.038904358
222	0x3dda2536	0.10651629
223	0xbda9a7d4	-0.08283964
224	0x3d84ad1d	0.06478331
225	0xbe414892	-0.1887534
226	0xbe6d63f5	-0.23182662
227	0xbe5130d7	-0.20428787
228	0xbe502c50	-0.20329404
229	0xbd58d7b4	-0.052940086
230	0xbd3b54e7	-0.045735266
231	0xbe4257e6	-0.18978843
232	0x3d8d2bf5	0.0689315
233	0xbdc7b859	-0.097519584
234	0xbcd492ff	-0.025949
235	0xbd9553d0	-0.072913766
236	0xbd964c23	-0.07338741
237	0xbb8a7e14	-0.0042264555
238	0x3a84f3c3	0.0010143447
239	0xbd692cd1	-0.056927506
240	0x3d1b1f54	0.037871674
241	0x3c555b14	0.013022203
242	0xbb2fb537	-0.0026810893
243	0x3e578450	0.21046567
244	0x3d8d872a	0.06910546
245	0x3d16a3cd	0.036777306
246	0xbc0a57ac	-0.008443754
247	0x3caaf28a	0.020867605
248	0xbe0143fd	-0.12623592
249	0xbd058d82	-0.032605655
250	0xbe33d7fc	-0.1756286
251	0x3d18f584	0.037343517
252	0xbe5e0aff	-0.21683882
253	0xbe87f1d8	-0.265517
254	0xbd93fd84	-0.07226089
255	0xbe7462b8	-0.23865783

conv3.bias f4 [128]
0	0xbda90abf	-0.08254003
1	0x3c1fd8b8	0.00975626
2	0xbd419f89	-0.047271285
3	0x3d52e4e5	0.051487822
4	0xbd9cb586	-0.0765181
5	0xbd821561	-0.06351734
6	0xbc9bb8c0	-0.019008994
7	0xbc0e104d	-0.008670879
8	0xbc970496	-0.018434804
9	0xbd1d107f	-0.03834581
10	0x3d478e3f	0.04871964
11	0xbd1c1eb6	-0.038115226
12	0xbda4d69c	-0.08048746
13	0xbd9472a8	-0.072484314
14	0x3c3dc111	0.011581675
15	0x3cb5c622	0.022189204
16	0xbd959740	-0.07304239
17	0xbda66ad7	-0.08125847
18	0xbcf05cd4	-0.029341139
19	0xbd59967c	-0.05312203
20	0x3cc13a71	0.023587437
21	0xbd0cc635	-0.034368712
22	0x3ca62d38	0.020285234
23	0xbc690658	-0.014222704
24	0x3cf9006c	0.030395709
25	0xbdb4631d	-0.08807967
26	0xbd28e299	-0.041231725
27	0xbcad5a1e	-0.021161135
28	0x3b31f999	0.0027156828
29	0x3bc8d151	0.006128468
30	0xbc71f573	-0.014767992
31	0xbdd2b624	-0.10288647
32	0xbc4082e1	-0.011749954
33	0xbdd23baa	-0.10265286
34	0x3bc8b982	0.00612563
35	0x3c2b9861	0.010473342
36	0xbd3417fb	-0.043968182
37	0xbcd21b91	-0.02564791
38	0xbd3fbbdd	-0.04681002
39	0xbd70f0d7	-0.058823433
40	0xbdc64993	-0.09682002
41	0xbcc90b03	-0.024541384
42	0xb925a0ac	-0.00015795481
43	0xbdb9bcc2	-0.09069206
44	0xbddf4d96	-0.1090347
45	0xb8f226b1	-0.00011546666
46	0xbd7ae62e	-0.061254673
47	0x3c068c95	0.008212228
48	0xbddbba5d	-0.10728905
49	0x3c2d0ccb	0.010562132
50	0xbdb57b07	-0.08861356
51	0xbba40383	-0.0050053014
52	0xbe072ab4	-0.13199884
53	0xbce84cf9	-0.028357016
54	0x3a689102	0.00088717055
55	0xbd972b5e	-0.073813185
56	0xbd5f4e5e	-0.054518096
57	0xbd172dda	-0.03690896
58	0xbce621b7	-0.028092248
59	0xbc66016a	-0.014038423
60	0xbd2a9931	-0.04165
61	0xbd184fe7	-0.037185576
62	0xbd074b0b	-0.03303055
63	0xbd6f4126	-0.05841174
64	0xbd228d8c	-0.03968577
65	0xbd3d774f	-0.04625636
66	0xbbf0f10b	-0.0073529533
67	0xbcc6038d	-0.024171615
68	0xbd4bc12d	-0.049744774
69	0xbe014b7e	-0.12626454
70	0xbcccce1e	-0.025000628
71	0xbd5c02d5	-0.05371364
72	0xbcf8fdb0	-0.030394405
73	0xbdf070ed	-0.11740289
74	0xbd4850ca	-0.04890517
75	0xbe05e97a	-0.13077345
76	0xbd98d4ba	-0.07462449
77	0x3cfe3739	0.031032192
78	0x3c532c99	0.012889051
79	0xbe2490b2	-0.16070822
80	0xbb40110e	-0.002930704
81	0xbdb5e722	-0.08881976
82	0x39d9393d	0.0004143211
83	0xbd541580	-0.051778316
84	0xbbabf96e	-0.00524824
85	0x3cf618f1	0.03004119
86	0xbc18cfed	-0.009326917
87	0xbd933a09	-0.07188804
88	0xbd27c40b	-0.040958446
89	0x3d39076d	0.045173097
90	0x3d08f44a	0.033436097
91	0x3d36eebf	0.04466128
92	0xbcc6f57d	-0.02428698
93	0xbbf3a380	-0.007435262
94	0xbd05042c	-0.03247468
95	0xbc9187cb	-0.017764946
96	0xbda05d79	-0.078303285
97	0xbcf6004c	-0.030029438
98	0x3d03ea87	0.032206085
99	0xbcf6cf21	-0.030128064
100	0xbd350caf	-0.04420155
101	0xbd592c7c	-0.05302094
102	0xbd0fd489	-0.0351148
103	0xbd696ead	-0.056990314
104	0x3ce6cd55	0.028174082
105	0x3d0d8c6b	0.03455774
106	0xbc848fda	-0.016181875
107	0xbcefb2e5	-0.029260108
108	0xbd0df02c	-0.034652874
109	0xbd5993c9	-0.053119455
110	0x3cab6065	0.020919988
111	0xbd9c86a0	-0.07642865
112	0x3d028492	0.03186471
113	0xbd2f86cc	-0.04285316
114	0xbce98bab	-0.028508982
115	0xbd3e631c	-0.046481237
116	0xbb8cfb12	-0.004302391
117	0xbdb21a8e	-0.08696471
118	0xbd1dee17	-0.03855714
119	0xbd6ff87b	-0.05858658
120	0xbd61d6d5	-0.05513652
121	0xbc0c2c4e	-0.008555485
122	0x3d384bbe	0.04499411
123	0xbde97dfa	-0.11400981
124	0xbc976167	-0.018479062
125	0xbb841504	-0.0040308256
126	0xbce75795	-0.028240005
127	0xbdbe0cc1	-0.09279776

fc1.weight f4 [10, 128]
0	0xbe67614a	-0.22595707
1	0xbe80ad8d	-0.2513241
2	0xbe3a97ae	-0.18221924
3	0x3e2223fd	0.15834041
4	0x3db84833	0.08998146
5	0xbe05bc4a	-0.13060108
6	0xbe58fb2b	-0.21189563
7	0xbea0533c	-0.31313503
8	0x3d5d4b4a	0.05402688
9	0x3d9ed280	0.077549934
10	0xbdbbfedf	-0.09179472
11	0xbc92692a	-0.017872412
12	0xbe194714	-0.1496852
13	0x3c12d1de	0.008961169
14	0xbe12f880	-0.14352608
15	0x3dfe5153	0.12417855
16	0x3d8b131c	0.06790754
17	0x3d438114	0.04773052
18	0x3e269677	0.16268335
19	0xbe1bb9a3	-0.15207534
20	0x3e3f8a82	0.1870518
21	0x3c00beaa	0.007857958
22	0xbcae54b8	-0.021280631
23	0x3e139447	0.14412032
24	0x3dad1837	0.08451884
25	0xbe320769	-0.17385639
26	0xbc19aea6	-0.009380018
27	0x3db34c57	0.08754795
28	0x3d118bf7	0.03553387
29	0xbe273059	-0.16327037
30	0x3d05e56d	0.0326895
31	0xbe3193dd	-0.17341562
32	0xbb946696	-0.0045288308
33	0x3dd57db4	0.104243666
34	0xbe0bfa09	-0.136696
35	0xbe483258	-0.19550455
36	0x3ded7ac9	0.11595685
37	0x3e222d92	0.15837696
38	0xbd7d3a8b	-0.06182341
39	0xbd958462	-0.07300641
40	0x3de4ab81	0.11165524
41	0x3c51dfd5	0.012809713
42	0x3d4dd717	0.050253954
43	0xbe63992c	-0.22226399
44	0x3e26446a	0.16237035
45	0xbd97dbb5	-0.07414953
46	0x3d3e966f	0.046530183
47	0xbd63e38a	-0.05563692
48	0xbecfdb2d	-0.40596905
49	0xbdf6ddb2	-0.12054004
50	0xbd9fde71	-0.07806099
51	0xbdac9fb2	-0.08428897
52	0xbec00139	-0.37500933
53	0xbc9672db	-0.018365314
54	0xbd790eea	-0.06080524
55	0xbe8942e9	-0.2680886
56	0xbe2f72f4	-0.17133695
57	0x3d46cec2	0.048537023
58	0x3d6e1cd0	0.058132946
59	0x3dc7572d	0.09733424
60	0xbbb52a75	-0.005528743
61	0xbd872667	-0.065991215
62	0xbebe69cf	-0.371901
63	0xbe958844	-0.29205525
64	0x3df33291	0.11874879
65	0xbd7e3d36	-0.062070094
66	0x3cbb6e94	0.022879876
67	0xbd06de00	-0.03292656
68	0xbea822c0	-0.32839012
69	0xbe580e5d	-0.21099229
70	0x3d218990	0.03943783
71	0x3d29f141	0.041489843
72	0xbe642b10	-0.22282052
73	0x3d11ba9c	0.035578355
74	0x39ebf97e	0.0004500858
75	0xbe74996f	-0.23886655
76	0xbdbb53ab	-0.09146818
77	0x3e1c90b5	0.15289576
78	0x3c64ccff	0.0139648905
79	0xbeb4562a	-0.35221988
80	0x3d970817	0.0737459
81	0xbe884ba0	-0.26620197
82	0xbdaf3fd4	-0.08557096
83	0xbe82fa80	-0.2558174
84	0x3d20b612	0.039236136
85	0x3d246956	0.04013952
86	0xbcdbf7ee	-0.02685162
87	0x3dbfd5f3	0.093669794
88	0xbd45a3b5	-0.048251826
89	0x3e0eb688	0.13936818
90	0xbd8c8d02	-0.068628326
91	0x3dfca056	0.12335269
92	0xbe7c3edf	-0.24633358
93	0xbda47d9c	-0.080317706
94	0xbda73f40	-0.08166361
95	0x3b268b84	0.0025412748
96	0x3e034bc9	0.12821878
97	0xbe43f9b9	-0.1913823
98	0x3d4a49f0	0.04938692
99	0xbe377e07	-0.1791917
100	0xbe0899f6	-0.13339981
101	0xbe294b72	-0.16532686
102	0x3cac856a	0.02105971
103	0x3c95c34c	0.018281601
104	0xbb1a2a05	-0.002352358
105	0xbcb77750	-0.02239576
106	0xbe34bf4e	-0.17651102
107	0x3e1bf44a	0.15229908
108	0xbc74bb03	-0.014937165
109	0xbeb48e20	-0.35264683
110	0xbe4c2edd	-0.19939752
111	0xbb8acf03	-0.0042361035
112	0xbee9b5c8	-0.456465
113	0x3e07fb91	0.13279559
114	0xbe91b7d9	-0.28460577
115	0x3e0059e5	0.12534292
116	0x3d546a3f	0.051859137
117	0xbe82b763	-0.25530538
118	0x3db5ffe6	0.088866994
119	0x3c8b3fcf	0.0169982
120	0xbdf1920f	-0.117954366
121	0xbd7c47c6	-0.061591886
122	0x3dd2f121	0.10299898
123	0xbd924e85	-0.07143883
124	0xbd0d9151	-0.034562413
125	0x3dbc6483	0.091988586
126	0x3dbad0ff	0.09121894
127	0xbce9e993	-0.02855376
128	0x3dc67542	0.09690334
129	0x3d6662a8	0.05624643
130	0xbe23fb8a	-0.16013923
131	0xbd91284a	-0.07087763
132	0x3d979ff7	0.07403558
133	0x3e69089b	0.22757189
134	0xbe4b8891	-0.19876315
135	0xbd39d0eb	-0.045365255
136	0x3df9cd3d	0.12197349
137	0x3d7ad11d	0.061234582
138	0x3ddfb44c	0.10923061
139	0xbbb981cf	-0.0056612263
140	0xbe0a9534	-0.13533479
141	0xbd826272	-0.06366433
142	0xbd04c908	-0.03241828
143	0x3e1c50ff	0.15265273
144	0xbd46741f	-0.048450585
145	0xbe432f45	-0.19061
146	0xbe56188e	-0.20907804
147	0xbdbc46f3	-0.0919322
148	0x3dedaf3c	0.11605689
149	0x3d73dd81	0.059537414
150	0x3e35f3eb	0.17768829
151	0xbeba6be2	-0.36410433
152	0xbe6c5f01	-0.23083116
153	0x3caecbcf	0.021337418
154	0x3ded8ddb	0.115993224
155	0x3cb38675	0.0219147
156	0x3d2bcad6	0.041941486
157	0x3e2edd6f	0.17076658
158	0xbe81b29b	-0.25331578
159	0x3d3ef486	0.046619914
160	0xbdff6a81	-0.12471486
161	0xbed3662e	-0.41288894
162	0xbe6a09fe	-0.22855374
163	0xbe3090c2	-0.1724272
164	0x3e1dee28	0.1542288
165	0xbe864a82	-0.2622872
166	0xbdb9f656	-0.09080188
167	0xbe8fbd54	-0.28074133
168	0xbeaa0bca	-0.3321212
169	0xbd561a96	-0.052271448
170	0xbcdab04f	-0.026695399
171	0x3cfc179a	0.030772973
172	0xbd33a1bc	-0.043855414
173	0xbeaf119b	-0.3419312
174	0x3e37a99a	0.17935792
175	0x3c820263	0.015870279
176	0xbdbd8cb9	-0.09255356
177	0x3d321a15	0.043481905
178	0xbcad5f7b	-0.021163693
179	0xbeb2be7b	-0.3491095
180	0x3d7a5629	0.061117325
181	0xbcf404c3	-0.029787427
182	0xbd7448bf	-0.05963969
183	0xbd7a36ef	-0.061087545
184	0x3d31e997	0.04343566
185	0x3cb27fab	0.021789392
186	0xbd30be9f	-0.04315054
187	0xbd7485a5	-0.059697766
188	0x3d885974	0.06657687
189	0x3e3f3315	0.1867183
190	0xbe6185bc	-0.22023672
191	0xbe624673	-0.22097187
192	0xbe951823	-0.29119977
193	0x3c369242	0.011143269
194	0xbebea275	-0.3723332
195	0xbe2a9a33	-0.16660385
196	0xbe75953a	-0.23982707
197	0xbdb4d518	-0.08829707
198	0x3da84f37	0.08218234
199	0x3d84f061	0.06491161
200	0x3de9468d	0.113904096
201	0x3e11b211	0.14228083
202	0xbdac3368	-0.084082425
203	0xbd401ee3	-0.046904456
204	0x3cd41aac	0.025891624
205	0x3db22443	0.086983226
206	0x3d187ede	0.037230365
207	0xbd988396	-0.07446973
208	0xbdd7ca37	-0.10536616
209	0x3d8b19ab	0.06792005
210	0x3d347a6c	0.044062063
211	0x3dcf6825	0.10127286
212	0xbd23f910	-0.040032446
213	0x3d47643b	0.04867957
214	0xbd09ff91	-0.033690993
215	0xbdba233a	-0.0908875
216	0x3caf2848	0.021381512
217	0x3c53847c	0.012910005
218	0xbeeb9b73	-0.46017036
219	0xbeaf176a	-0.3419755
220	0x3df4c12c	0.11950907
221	0x3d39d606	0.045370124
222	0x3bcba200	0.0062143803
223	0xbd47c4a3	-0.04877151
224	0x3de564f0	0.11200893
225	0xbe133fed	-0.14379855
226	0x3d8c450d	0.06849108
227	0xbed4b0bd	-0.4154109
228	0xbe2fc100	-0.17163467
229	0xbe544d1b	-0.20732538
230	0xbf0c938b	-0.5491263
231	0xbda0b967	-0.07847863
232	0x3de76ccf	0.113000505
233	0x3bd6aa00	0.0065510273
234	0x3c858803	0.016300207
235	0xbe0fa8d5	-0.14029248
236	0x3d655db2	0.055997558
237	0x3e0f899c	0.14017338
238	0x3dbd36f3	0.09238996
239	0x3e561327	0.20905744
240	0x3e45c980	0.19315147
241	0xbee6e9ce	-0.45100254
242	0x3d8dbbfc	0.06920621
243	0xbead61a0	-0.33863544
244	0xbf0cf44c	-0.5506027
245	0x3d79766a	0.060903944
246	0x3da45c77	0.08025449
247	0x3b18cb17	0.002331441
248	0x3d344190	0.044007838
249	0xbd8ee5f6	-0.06977455
250	0x3e2563e2	0.16151384
251	0xbe8269e8	-0.25471425
252	0xbcceef11	-0.02526048
253	0xbee832f0	-0.45351362
254	0xbd172fb1	-0.036910716
255	0x3c69b109	0.0142634

fc1.bias f4 [10]
0	0x3e3c479d	0.18386693
1	0x3e29eea4	0.1659494
2	0xbeb77f21	-0.3583918
3	0x3e0d6a11	0.13809992
4	0x3e7eec8e	0.24894926
5	0xbced780b	-0.028987905
6	0xbda6a3a0	-0.08136678
7	0x3e95be1e	0.2924661
8	0x3e1740c7	0.14770804
9	0xbec9c787	-0.3941004
